chatbot_model.pth (torch, 176349 bytes, 6 tensors)

fc1.weight f4 [128, 249]
000000 4b 35 2c 3e 86 b6 37 3e f3 f0 76 bd a5 04 10 bd
       0.16817205 0.17940721 -0.06028838 -0.03516068
000010 bf e2 85 bd 78 07 f9 bd e9 b5 25 3e d9 7d 89 bc
       -0.06537389 -0.12159628 0.16182674 -0.016783642
000020 7d 5f 38 be 47 d5 db 3d a0 59 a2 bd 03 3c d9 3c
       -0.18005176 0.10734039 -0.07927251 0.026517874
000030 c4 5c 23 3e 50 03 41 3e c4 ff 3c be e8 f6 f1 bd
       0.15953356 0.1884892 -0.18456942 -0.11814672
000040 cc bf 94 3c 73 c4 7c 3e 20 be 09 be 93 8f 4a 3e
       0.018157862 0.24684314 -0.13451433 0.19781332
000050 fa 04 dd bd 5c 53 4b 3d 8e b2 8c bc 10 4f 63 bd
       -0.10791965 0.049640045 -0.017174985 -0.05549532
000060 01 01 a3 3d ce 38 07 3e 99 97 92 bd ec b4 f1 3b
       0.07959176 0.13205263 -0.07157821 0.007376304
000070 cc 5a 8a bd e2 aa 13 3e ad 0e 1d bd 35 2c 1a be
       -0.067555994 0.14420655 -0.038344074 -0.15055926
000080 de c7 8e 3c ef 25 44 3c 90 93 a4 3e e7 c3 2b bd
       0.017429288 0.011971935 0.3214383 -0.041934874
000090 5b 93 a3 3e 04 83 bd 3d 55 50 dc 3d 86 0e 36 bd
       0.3194836 0.09253505 0.107575096 -0.044447444
0000a0 31 dc 98 3e e4 55 53 3e a8 c0 17 be 79 ac fd bd
       0.29855493 0.20638233 -0.14819586 -0.12386412
0000b0 58 45 0d 3e 70 dd 30 be b6 25 11 be 0b 02 28 be
       0.13795984 -0.17271972 -0.14174542 -0.1640703
0000c0 9c f8 0c be 5e 2b c2 3d 5d c8 50 bd cb 85 df bd
       -0.13766712 0.09480928 -0.05097233 -0.10914191
0000d0 fb 5f 96 bd fc 8c 00 bd 19 99 e6 bd 7b 9c aa 3a
       -0.073425256 -0.031384453 -0.1125967 0.0013016606
0000e0 6e 65 fa bd 92 4e 49 be 77 bf 70 bd e6 f4 7c bd
       -0.122263774 -0.19658878 -0.058776345 -0.06175699
0000f0 8c 09 11 bd 76 5f 1c 3b 9d 7b 5c 3c 40 b1 03 be
       -0.035409495 0.002386061 0.013457206 -0.12860584
000100 5c 62 47 3e c9 f3 9c bd 0b f4 63 bd 91 e8 81 3e
       0.19471115 -0.07663686 -0.05565266 0.25372747
000110 8d d8 57 3d b7 d6 29 bc 64 39 6a bd 4d 9a 4e be
       0.052696753 -0.010366133 -0.05718364 -0.20176049
000120 14 90 c6 3c 0f 3e 02 3d ae e8 d2 bd 96 c5 7c 3e
       0.024238624 0.031797465 -0.102982864 0.24684748
000130 a0 aa 6d 3d 8b be 5f 3e d4 6e 08 bd 31 cb 92 bd
       0.05802405 0.2185003 -0.03330882 -0.07167662
000140 fa 76 82 bd 89 64 30 3e f0 c7 ff 3d c3 05 9d bd
       -0.06370349 0.17225851 0.12489307 -0.076671146
000150 d0 0f 46 3c 2e e6 f4 bc bf 54 34 3e 3c 70 68 be
       0.012088731 -0.029894914 0.17610453 -0.22699064
000160 06 8f dc bd b5 52 c4 bd ba 37 9d bd aa 5d 41 be
       -0.10769467 -0.095860876 -0.076766446 -0.18883386
000170 eb 88 d2 bd 28 f0 0d be 44 d6 3e bd 3f 2e ea 3d
       -0.10280021 -0.13861144 -0.04659106 0.11434602
000180 30 f6 c9 3d 9e 89 0c 3e 0f eb 1a be 43 d2 aa bb
       0.0986141 0.13724372 -0.1512873 -0.0052130534
000190 26 cf 41 bd 91 20 40 3e 06 6a 02 3e 0a fb 57 3e
       -0.047316693 0.18762423 0.12735757 0.21091858
0001a0 34 9a 2d 3d 98 f2 07 3e 1e d2 d6 bc 17 82 77 3e
       0.042383388 0.13276136 -0.026223239 0.24170719
0001b0 59 4b 1c 3e d8 6e 80 be 31 1a 30 3e d8 c8 88 3e
       0.15263118 -0.25084567 0.17197491 0.26715732
0001c0 56 72 3e 3e ba 2b 2a 3c eb ce 95 bd 07 89 46 3c
       0.18598303 0.010386402 -0.07314857 0.012117631
0001d0 14 22 bf bb 09 00 02 3d 35 60 8a 3d 0a 8c 13 3e
       -0.00583292 0.031738315 0.06756631 0.1440889
0001e0 05 0b 30 3d 55 11 af 3d a3 3d 24 bd bf 65 1c bd
       0.04297926 0.08548228 -0.040097844 -0.03818297
0001f0 96 af bd bd a7 8e 31 be 82 03 34 be 6f 66 88 3e
       -0.09262006 -0.17339574 -0.17579463 0.2664065
000200 5f 9a e5 bd 42 4c 16 3e a5 f0 63 bd 2e ea 22 3e
       -0.112110846 0.14677528 -0.05564942 0.15909645
000210 3f 6a 16 3d 57 5c e6 bd 9f 8b c1 bc 71 c7 c2 bd
       0.036722418 -0.11248081 -0.023626147 -0.09510697
000220 97 ad 26 be 17 b6 12 3e 37 da 88 3e dc 84 9f 3d
       -0.16277157 0.14327274 0.26728985 0.07789013
000230 d9 29 6d 3e bb bd fb bd ba e4 5c bb 46 cd e1 bd
       0.23160495 -0.122920476 -0.0033705668 -0.11025481
000240 fc 24 9d 3e 06 89 2d 3e 46 c8 80 bd 39 18 32 be
       0.3069228 0.16946802 -0.06288199 -0.17392053
000250 f1 31 26 bd eb 71 87 bd 5b 6f c1 bd 45 f0 39 bd
       -0.04057497 -0.06613525 -0.094450675 -0.045395155
000260 1f 62 67 be 8b 76 51 be 54 56 9c 3b 1b a8 55 bd
       -0.22596024 -0.20455377 0.0047710333 -0.05216227
000270 10 17 94 bd 36 b0 9d 3d 64 73 d9 bd 74 5c cb bd
       -0.07230961 0.07699625 -0.10617712 -0.099297434
000280 cb c6 a8 bd e8 6f 84 bd c7 6e 8c bd 54 e7 2e bd
       -0.08241042 -0.06466657 -0.068570666 -0.04270108
000290 cb 40 5a be 86 9a a8 bc 75 01 ec bd 07 f8 62 bc
       -0.21313779 -0.020581495 -0.115237154 -0.01385308
0002a0 3d 61 5b bd 7e 9d b9 bd b0 8a 87 3b 8d 2a c0 bd
       -0.05355953 -0.090632424 0.004136406 -0.09383116
0002b0 76 52 10 bd 02 cb 14 bd 8a f0 42 bd a6 8b 07 be
       -0.03523489 -0.036326416 -0.047592677 -0.13236865
0002c0 df 24 d2 bd c3 ca 93 bd 7e 22 cb bd 39 72 b8 bd
       -0.10260939 -0.07216408 -0.09918688 -0.09006161
0002d0 4f 18 72 3d 00 a0 f0 3d 52 6b 8b ba 6d 55 f6 bc
       0.059105214 0.117492676 -0.0010636842 -0.030070031
0002e0 13 b7 b8 bd 10 60 6c 3d e0 df 8f bd 6b 82 db bd
       -0.09019294 0.0577088 -0.07025123 -0.10718235
0002f0 fd a4 0a be 89 4d 04 be 40 4a 9e bd da 70 68 bd
       -0.135395 -0.12920202 -0.07729006 -0.05674825
000300 a6 5f 9f bd d7 b4 d9 3d 1d 8e e9 bd 8e 56 21 be
       -0.07781915 0.106301956 -0.11404059 -0.15755674
000310 2d d8 ed 3d 97 ab 17 be 6d b3 99 3d c8 3c bc bd
       0.11613498 -0.1481155 0.07504926 -0.091912806
000320 3d 53 58 bd e2 a8 af 3c 13 3a 82 bd f9 b0 fa 3d
       -0.052813757 0.021442834 -0.06358733 0.12240786
000330 fc 90 a4 bd 56 ea 3a 3e fd c3 68 bc 44 4a 8c bd
       -0.08035466 0.18253455 -0.0142068835 -0.068501025
000340 35 a4 eb 3d 2a 0e e2 bd f7 ff fa bd 3d 6e 12 3d
       0.115059294 -0.11037858 -0.12255853 0.035749663
000350 14 d6 03 be f9 fe 05 bd 32 f2 d0 bd 3a bc 39 bd
       -0.12874633 -0.032713864 -0.10202445 -0.045345522
000360 5a 02 4d be 36 9a a9 3e 75 c8 7f 3d a0 cb e7 3d
       -0.20020428 0.33125466 0.06244703 0.11318135
000370 f1 0f 56 3e 4f 2a b4 bd fe 98 bd bc ce 29 df bb
       0.20904519 -0.08797132 -0.023144241 -0.0068104034
000380 de ce 5c 3e be 82 eb bd 32 e1 5d bd 81 1b ae 3d
       0.21563289 -0.114995465 -0.05416984 0.0850134
000390 16 a3 9d bc fc 44 6f 3d 2e 25 fe 3d 77 a6 79 bd
       -0.019242804 0.058415398 0.12409435 -0.06094977
0003a0 c7 a3 9d 3c fc 6b 9f bd c1 a0 9d 3c f7 b6 92 bd
       0.019243134 -0.07784268 0.019241692 -0.07163804
0003b0 05 4f 99 bc 3d bd cf bd 89 59 2d bd e5 26 43 bd
       -0.018714437 -0.10143516 -0.042321716 -0.047644515
0003c0 70 36 4b bd 71 a4 1e bc a8 42 56 3d b4 53 03 be
       -0.049612463 -0.009682761 0.052309662 -0.12824899
0003d0 4b 15 85 3e 51 95 8c bd 9c ba a0 bd 74 63 6e 3e
       0.25992808 -0.06864417 -0.07848093 0.23280126
0003e0 d4 6a b6 3e d8 5c 32 3d 82 da a8 bd d6 aa 85 bc
       0.35628378 0.043545574 -0.08244802 -0.016316812
0003f0 29 a4 09 be 6f 5a 67 bd 32 ee 68 3d bf d2 b5 bd
       -0.13441528 -0.05648273 0.056867786 -0.08878087

fc1.bias f4 [128]
000000 a2 aa 7e 3e 46 1a 3c 3e 7b 75 d6 3d 7d 25 93 3d
       0.24869779 0.18369398 0.10471626 0.07184885
000010 5f b1 eb 3d a4 be 33 3e ff 3d 21 3e 9a 7f cf 3d
       0.1150844 0.17553192 0.15746306 0.1013176
000020 f7 96 3d 3e 85 51 1f 3e 90 8e 32 3e d0 91 8f 3d
       0.1851462 0.15558441 0.17437196 0.070102334
000030 c8 d4 5c 3e 38 32 04 3e f1 26 d4 3d 42 8b 0d 3e
       0.21565545 0.12909782 0.1035899 0.13822654
000040 3e 27 29 3e a3 b8 30 3e 95 ef 44 3d ad a0 ca 3d
       0.16518876 0.17257933 0.048080046 0.09893928
000050 2f 94 2d 3e 4a 67 09 3e c9 a5 ed 3d f1 a1 67 3d
       0.16951059 0.13418308 0.11603887 0.056550924
000060 4a 4a 41 3e 1f be 29 3e 28 72 1d 3e b7 b5 39 3e
       0.18875995 0.16576432 0.15375578 0.18135725
000070 13 68 5a 3d e2 8e 3b 3e 33 43 d7 3d 61 87 b8 3d
       0.05332191 0.18316224 0.10510864 0.090101965
000080 23 66 b0 3d 54 71 cd 3d b2 59 04 3e 8a e2 cf 3d
       0.08613231 0.10031381 0.12924841 0.10150631
000090 b0 65 8d 3e 01 08 89 3d bf 3e e0 3d 63 1f 21 3e
       0.27616644 0.0669098 0.10949468 0.1573463
0000a0 49 bb 28 3e e2 27 b9 3d 2f c4 f7 3d ab 73 92 3d
       0.16477694 0.0904081 0.12097966 0.07150968
0000b0 e9 d3 61 3d 88 91 27 3d a2 4f 0e 3d 52 ce b1 3d
       0.055133734 0.040910274 0.034743913 0.086819306
0000c0 f9 f5 98 3d 7c 06 2d 3e ba 52 3c 3e 6b 8d 1b 3e
       0.074687906 0.16897005 0.18390933 0.15190665
0000d0 fa 89 12 3e 2e b7 ce 3d 8f 80 50 3e d2 ff a9 3d
       0.14310446 0.100935325 0.20361541 0.08300747
0000e0 29 dc 9e 3d 54 8d 11 3e e4 40 d8 3d e0 16 b0 3d
       0.07756836 0.14214069 0.10559252 0.08598113
0000f0 a9 aa 39 3e f2 ec 86 3e b7 24 2f 3e db 77 a1 3d
       0.18131508 0.2635265 0.1710385 0.07884189
000100 2c 61 13 3e fa 44 9b 3d 13 39 dd 3d 22 93 f3 3d
       0.14392537 0.075815156 0.10801902 0.11893298
000110 0c fa 3d 3e d5 e7 86 3d 88 db 3b 3e de 3a 4a 3d
       0.18552417 0.06587187 0.18345463 0.049372546
000120 20 6e c1 3d c3 7d 51 3e b8 69 6d 3e bc ad 0f 3e
       0.09444833 0.2045813 0.2318486 0.14031118
000130 54 33 0e 3e b4 fb c5 3d 8f b0 55 3e 78 0e ea 3d
       0.13886768 0.09667149 0.20868133 0.11428541
000140 39 d9 17 3e 24 b9 c2 3d 60 00 91 3d 57 95 b1 3d
       0.14828958 0.09507969 0.0708015 0.086710624
000150 7a 55 70 3e d3 cf 82 3d 6e 4d 24 3e d2 40 62 3e
       0.23470107 0.063872956 0.16045162 0.2209504
000160 7b b8 b1 3d eb 51 09 3e b4 8a 86 3d 02 87 b5 3d
       0.08677765 0.13410155 0.06569424 0.08863641
000170 b0 bf 4f 3e 3e b1 bb 3d 3e a0 3e 3e fa 1f f9 3d
       0.20287967 0.09164666 0.18615815 0.12164302
000180 7a cb 9f 3d e3 8a 05 3e 6b d3 56 3d 26 a2 97 3d
       0.07802482 0.13041262 0.052447718 0.07403974
000190 95 09 df 3d 23 af c1 3d a0 21 53 3d 0c 3e 74 3e
       0.108904995 0.09457233 0.05154574 0.23851794
0001a0 e2 48 af 3d b5 49 29 3e 6b c8 8a 3d 32 47 0e 3e
       0.08558823 0.16532023 0.06776508 0.13894346
0001b0 76 f4 53 3d 6a de 8a 3d 94 08 b3 3d 34 2b 94 3d
       0.051746808 0.06780703 0.087418705 0.07234803
0001c0 40 df d1 3d 38 f6 a9 3d 96 53 54 3e 58 9d 10 3e
       0.1024766 0.082989156 0.2073501 0.14122522
0001d0 cc 2c 3c 3e f4 21 aa 3c 0a 50 1d 3e 59 b4 d2 3d
       0.18376464 0.020768143 0.15362564 0.10288305
0001e0 3c e7 b9 3d 64 7d 04 3e 64 7d 3b 3e d9 4d 32 3e
       0.090773076 0.12938458 0.18309551 0.17412509
0001f0 e3 de 8f 3d 63 92 a5 3d 09 93 f0 3d 14 26 55 3e
       0.07024934 0.08084562 0.11746795 0.20815307

fc2.weight f4 [64, 128]
000000 ff 1e 70 be b2 68 e0 be 93 f5 b5 bd d0 48 42 3e
       -0.23449324 -0.43829876 -0.0888473 0.18973088
000010 9a d1 5c be ca bf c9 bc d7 75 c3 bd 2b 3b ac bd
       -0.21564332 -0.024627585 -0.095439605 -0.08409723
000020 82 60 41 be fe 15 00 3f 1c a9 9d be ee 7b d0 b9
       -0.18884471 0.5003356 -0.30793083 -0.00039765186
000030 6c 27 60 bc 6d bb a7 be 0b 9a 5f be 63 cc f0 3d
       -0.013681274 -0.32760182 -0.21836106 0.11757734
000040 29 27 44 be 51 56 b7 bd d1 81 80 be 7a 77 a8 3e
       -0.19155563 -0.089520104 -0.25099042 0.32903653
000050 41 7c 32 be 1f d3 11 3d 71 d0 35 bc 22 7b 04 3e
       -0.17430212 0.03560173 -0.01109706 0.12937596
000060 88 78 e1 3d da f3 06 bd 29 2f 93 3e 29 06 35 3d
       0.11009318 -0.0329474 0.28746918 0.044195328
000070 7a c0 50 3d b2 37 2c 3e cb c6 96 3d 11 89 64 3e
       0.05096481 0.16818121 0.073621355 0.22317912
000080 7d b9 38 3e 2a 52 01 3d 27 14 fc 3e 7b 02 46 bc
       0.18039508 0.0315725 0.49234125 -0.012085552
000090 eb a5 ec bd d3 e0 83 3d da fe bf 3c df 83 3a bd
       -0.11555084 0.06439366 0.023436952 -0.04553592
0000a0 a2 98 af 3d d7 03 09 3e ce 76 ad 3c b4 0a 81 3e
       0.08574034 0.13380371 0.021174815 0.25203478
0000b0 19 39 54 3e 8a f1 66 3e c9 ec 0a bd e6 aa 07 be
       0.20724906 0.22553077 -0.033917222 -0.13248786
0000c0 14 7a d5 3d e0 75 09 be 91 9e cc 3d 06 e8 db bd
       0.10423675 -0.13423872 0.09991182 -0.10737614
0000d0 66 32 55 3e 1e de 5b bc fd 47 1d 3d 46 b4 3c be
       0.20820007 -0.013419656 0.03839873 -0.18428144
0000e0 b7 b8 2c 3e 3b 1a 31 bc 61 17 b2 3b b2 d0 99 bd
       0.16867338 -0.0108094765 0.005434916 -0.075105086
0000f0 55 ab 3c bb 4e 5d 7a 3d 5a 07 62 be 11 ac 99 3e
       -0.0028788645 0.06112414 -0.22073117 0.3001409
000100 1e 44 92 3e bc 3b 1d be f2 0b 51 3e 64 f7 9f 3e
       0.28567594 -0.15354818 0.20414713 0.31243432
000110 08 c2 9b bc b6 e4 03 3e 06 ba 53 bc 64 5a 8e 3d
       -0.01901342 0.12880215 -0.012922769 0.069508344
000120 74 f2 94 3e d8 85 29 be 51 23 ca be c9 0a ce bc
       0.29091227 -0.16554964 -0.3948007 -0.025151627
000130 54 04 c6 3d 33 43 b6 3e c4 28 0e 3e 02 f3 24 3e
       0.09668794 0.35598144 0.13882738 0.16108325
000140 55 3f 22 3e 10 60 b1 3d ac e5 d5 3e c4 ac 85 3e
       0.15844472 0.086609006 0.41776788 0.26108372
000150 f4 87 8f be 85 13 0e be f2 10 d9 bc aa 4a b6 3d
       -0.28033412 -0.13874634 -0.026497338 0.0890096
000160 85 3d a9 bb 03 f1 1b 3d 48 68 85 be fc f3 7f 3e
       -0.0051648044 0.038071644 -0.26056123 0.24995416
000170 fc 19 fd bd 32 c3 f1 3d 40 22 12 bd 2f 75 a1 3c
       -0.12358472 0.11804809 -0.035677195 0.019709198
000180 e3 ce 92 3d f3 53 19 3d d0 ab 18 bc d3 e1 3d 3e
       0.07168367 0.037433576 -0.009318307 0.18543176
000190 6d 2b 9c 3e 4b ac 6f 3e 40 ba a7 3d 47 54 2b be
       0.3050188 0.23405568 0.08189821 -0.16731368
0001a0 b2 cc d0 3e f4 ec 2f 3c c5 b7 07 3e b3 c9 bd bd
       0.4078117 0.010737646 0.13253696 -0.09266987
0001b0 e1 47 dc bd 82 b2 ca bb 77 b5 f2 bd 2e 45 43 bd
       -0.10755897 -0.0061858306 -0.11851018 -0.047673397
0001c0 e7 4c 77 3e 64 01 bf 3e da b7 66 be aa 33 84 3e
       0.2415043 0.37305748 -0.22531071 0.25820667
0001d0 ba 05 f8 bd b3 95 88 3d 82 ad f6 bd e0 c5 1c be
       -0.12110467 0.06669178 -0.12044813 -0.15309858
0001e0 eb 0f c6 be de bd 0a 3e 84 95 9a 3e 21 e0 86 3d
       -0.3868402 0.13548991 0.30192196 0.06585718
0001f0 3f 46 9c bd 07 e9 ac 3d 54 7b c3 3c f0 8e ea be
       -0.07630586 0.08442884 0.023862518 -0.45812178
000200 84 02 96 3e 7b 0e 8f 3e 8e 56 b4 be b5 90 69 be
       0.29298794 0.27940735 -0.35222286 -0.22809108
000210 d8 1a 67 be 2d ef b1 be 97 7c 7f bd 93 30 6e be
       -0.22568834 -0.3475279 -0.062374678 -0.23260717
000220 0d 34 21 be fc a1 03 bd 90 31 ed 3d 3c 22 2c 3d
       -0.15742512 -0.032136902 0.11581719 0.042024836
000230 c6 c4 99 3e 38 70 d1 bd 0b ee 7d 3e 21 85 4b be
       0.3003294 -0.10226482 0.24797837 -0.19875003
000240 2e 24 55 3e da ce d1 3d d2 01 eb 3b eb 0a 76 be
       0.20814583 0.10244532 0.007171848 -0.24027602
000250 44 29 72 3e 4a b2 a7 3d c8 66 bd 3c 09 31 a9 be
       0.23648554 0.08188303 0.023120299 -0.33045223
000260 82 4b 58 3d db 18 12 be e5 d2 d6 bd f4 dd 19 3e
       0.052806385 -0.14267294 -0.10489444 0.15026075
000270 80 eb 44 bd 7c e5 77 3e f3 95 68 3d 14 89 aa bc
       -0.048076153 0.24208635 0.056783628 -0.020817317
000280 7a 5d 96 3d 73 e5 52 be 54 b6 f7 3d 74 02 7b be
       0.07342048 -0.2059534 0.12095323 -0.24512655
000290 11 9e 54 3e 57 ab b5 bd 78 59 8d 3e bc 8f 4e 3e
       0.20763423 -0.08870571 0.27607322 0.20172018
0002a0 86 c3 67 3e ef 4b 83 3e f8 c9 35 3d 83 c2 65 bb
       0.2263318 0.2564387 0.044382066 -0.0035058565
0002b0 1e de 3d 3c 2f 8d 71 3d ba f7 74 be 12 34 0e be
       0.011588601 0.058972534 -0.23922625 -0.13887051
0002c0 5c 90 1e 3e 9a 70 67 3d 64 f0 a5 3e ed e4 7d 3e
       0.15484756 0.05650387 0.32409966 0.2479436
0002d0 49 39 96 3e c0 17 85 be 2c b9 6b 3d 56 7d 1f 3e
       0.2934058 -0.25994682 0.05754964 0.15575156
0002e0 3a d4 8c be 03 2c 9d 3d fd 9a c1 bd 84 7a 12 3d
       -0.27505666 0.0767441 -0.0945339 0.03576137
0002f0 7a 21 44 3e 43 b3 9c 3e 60 ba ce 3e a8 e9 ef 3d
       0.19153395 0.30605516 0.40376568 0.11714488
000300 d0 10 1a be 2d 95 50 3e 12 0f fb 3d d8 66 06 be
       -0.15045476 0.20369406 0.12258734 -0.1312517
000310 d2 ca 17 3e e2 c4 cd 3c 6b dd 39 3e d7 be b3 be
       0.14823464 0.025118295 0.1815087 -0.35106537
000320 90 a9 96 be 43 df 43 3e 6f 70 07 3e 3f 70 ef 3e
       -0.2942624 0.19128136 0.13226484 0.46765324
000330 6c 85 a9 3e 13 c5 f7 bd 87 e8 e1 bc 78 14 ca 3d
       0.33109605 -0.12098136 -0.027576698 0.09867185
000340 2d 36 e4 3c da 7d c6 bd e3 a5 9b bd 00 df 11 3e
       0.027857864 -0.09691973 -0.076 0.14245224
000350 ae cd bd 3e 6e 38 3b be 95 db 3f bd 49 6f f5 3d
       0.37070984 -0.18283245 -0.04684027 0.119841166
000360 4f c6 43 be 37 54 d8 3c 04 4d 3b 3c 2f 53 3f 3e
       -0.19118617 0.026407344 0.011431936 0.18684076
000370 f4 d6 46 3d 67 8d 82 3e 18 1d 4d 3e 08 2d 51 3e
       0.04854484 0.25498506 0.2003063 0.20427334
000380 88 1a 98 3d ad 6f 72 bc ba ab 6a bd 6e ce 14 be
       0.074269354 -0.014797133 -0.057292677 -0.14531872
000390 48 7f b7 3d 72 84 85 be 06 7f 21 be d0 8e 11 3e
       0.08959824 -0.2607761 -0.15771112 0.14214635
0003a0 fd 2c 96 3e e5 90 14 3e 31 bb 3f bd 8a 5c 01 be
       0.29331198 0.14508398 -0.04680938 -0.12632957
0003b0 95 83 d6 3b 7e 30 b3 bd 41 1e 61 3e e4 5a 28 bd
       0.0065464475 -0.087494835 0.21984197 -0.041102305
0003c0 5a f0 2c be e6 e9 eb bd 68 33 ae 3d 4a bc 08 be
       -0.16888562 -0.11519222 0.08505899 -0.13353077
0003d0 01 e9 de bc 10 de d4 3c ac 30 9a 3d ac 6e 87 3e
       -0.027210714 0.025984794 0.07528815 0.26451623
0003e0 e8 6e be bd d1 83 ff 3d 60 c8 0e be 50 f7 ce 3d
       -0.092984974 0.12476314 -0.13943624 0.10105765
0003f0 fb 47 9d 3c 81 cb 7f 3e b0 1e 7e be d4 d7 36 be
       0.019199362 0.24979974 -0.24816394 -0.1785577

fc2.bias f4 [64]
000000 70 41 2b bd 36 71 0f 3e ca 40 fe bc e2 90 34 3d
       -0.041810453 0.1400803 -0.031036753 0.044083484
000010 ea b2 52 3e f9 54 ec 3b 4f 76 4c bd 09 3f d9 3d
       0.20576063 0.007212278 -0.049917515 0.10607726
000020 bd d6 04 be c5 26 7c 3d a7 36 8f 3d b9 fe 0d 3d
       -0.12972541 0.06156041 0.06992846 0.03466675
000030 02 a0 ac bd 73 12 18 bc d8 d2 72 3d 96 bd 29 3e
       -0.084289566 -0.009281742 0.059283108 0.16576228
000040 27 38 3a 3e cd 28 24 3d d5 eb 9c 3d 9d 87 54 3e
       0.18185483 0.040077973 0.07662169 0.20754857
000050 1d 29 14 3e 96 51 ae 3c d1 e6 2f bd 32 ed 73 3c
       0.14468808 0.021279138 -0.042944733 0.014888095
000060 98 3f 3c 3e bc 6c c0 3d 3e 99 b6 3d 15 67 14 3e
       0.18383634 0.093957394 0.089159474 0.14492448
000070 2b 97 37 3e 9d d6 28 3e cd 67 be 3d 10 32 35 3d
       0.1792876 0.16488118 0.09297142 0.044237196
000080 24 ac ae 3d 88 f8 e3 3d 61 fd 15 3e a7 bb 00 3e
       0.08528927 0.11131388 0.14647438 0.12571584
000090 ee 25 cb 3d c0 3b f8 bc 88 c4 b3 3d 55 54 8b bd
       0.09919344 -0.030301929 0.0877772 -0.068031944
0000a0 86 37 db 3d 18 3b 3c 3e cd 4b b6 bc 30 f8 ee bc
       0.1070395 0.18381917 -0.022252942 -0.02917108
0000b0 76 06 46 3e f9 5d 9f 3d 28 06 36 bd 7e 1c 94 3d
       0.19338402 0.07781596 -0.044439465 0.07231997
0000c0 c7 50 0c 3e aa 8c 64 3e 60 c2 9a 3b cd eb 23 3e
       0.13702689 0.22319284 0.0047228783 0.1600792
0000d0 3e 79 a8 3d 0d 4b 12 bc 65 94 ed 3d 47 59 5f bd
       0.0822625 -0.008929026 0.1160057 -0.0545285
0000e0 c8 b7 0f bd 66 d8 35 3e e1 c7 ee 3c 9f ed 8e bd
       -0.035087377 0.1775833 0.029148044 -0.069789164
0000f0 0e 3a 88 bd 1c 88 6a 3e 96 4f e1 3c 30 37 06 3d
       -0.06651698 0.22903484 0.02750377 0.032767475

fc3.weight f4 [47, 64]
000000 cf 4a 2d bf 03 de 5f 3e 37 13 fb 3d 03 32 38 be
       -0.67692274 0.21862034 0.12259524 -0.17987828
000010 54 d7 71 3e e4 87 e9 be 70 6b 5a bf d6 e9 d9 bd
       0.23617297 -0.4561149 -0.85320187 -0.10640304
000020 b2 b9 2c bf 9a 15 f4 be 7a 42 ce be 87 cd da bd
       -0.6747085 -0.4767273 -0.40285093 -0.106837325
000030 b0 9c 3c bf 17 57 17 be 1e b5 f8 3d 5c 31 ad 3d
       -0.73676586 -0.14779316 0.1214392 0.0845668
000040 47 97 14 3e ad ad 7a bf bf d0 26 be 9d 7a 61 3c
       0.14510833 -0.9792126 -0.16290568 0.013762143
000050 04 ce 37 3e 03 d8 2e be 21 e2 2f bf bb 61 6f be
       0.17949682 -0.1707459 -0.6870442 -0.23377125
000060 17 97 2d 3e c7 56 b1 bd 9a 3b b0 be e4 5e f4 3d
       0.16952167 -0.086591296 -0.34420472 0.119321615
000070 83 cb 0f 3e f9 59 2d 3e 1c d8 3f 3e 52 76 d5 3d
       0.14042477 0.16928853 0.18734783 0.104229584
000080 a8 85 17 be 98 1a 7c 3c 38 ed d3 3d 27 28 bc 3c
       -0.1479708 0.0153872 0.1034798 0.022968365
000090 a4 9e c1 be 1e 39 09 bf 8d 12 20 bd a0 98 35 bf
       -0.37816346 -0.5360278 -0.03908019 -0.7093601
0000a0 a8 d1 53 3e f1 8e f8 3d b0 b4 ea be 0d 26 f1 be
       0.20685446 0.12136639 -0.4584098 -0.47099343
0000b0 c1 b7 6e 3e 34 bd 85 3e 11 8a 27 bf cf 45 05 bf
       0.23312284 0.26120913 -0.6544505 -0.52059644
0000c0 8b 00 bc 3d 99 e5 ca 3d c7 55 a4 be b0 c7 0f 3e
       0.09179791 0.099070735 -0.32096693 0.14041018
0000d0 06 82 af bd ba 44 28 bf 00 1a 33 3e d7 1a 78 be
       -0.08569722 -0.6572987 0.17490387 -0.24228989
0000e0 4a 5b 0f bf b7 49 3c 3e fb 66 0b bf 9b c4 ff be
       -0.5599867 0.18387495 -0.5445401 -0.49954686
0000f0 75 50 45 be e0 92 f2 3d 2d f5 84 be 6f 13 e6 3d
       -0.19268973 0.118444204 -0.25968304 0.112341754
000100 9e 4a 15 bf 8a 20 1e 3e fe c8 bc bd 67 c2 18 be
       -0.5831698 0.154421 -0.09218024 -0.14917909
000110 5a f7 58 3e 59 bc ba be 31 94 0a bd de 16 7c be
       0.21188107 -0.36471823 -0.033832733 -0.24618098
000120 61 86 df be ad 48 b8 bd 62 25 4f bd 07 7d aa bc
       -0.4365721 -0.08998237 -0.05057276 -0.02081157
000130 5f fd 60 bf 93 73 61 bf 99 74 5e bf d3 22 36 3e
       -0.87886614 -0.8806698 -0.86896664 0.17786722
000140 ae 5b 7a 3d 04 93 97 bc f3 50 ab be ab d9 82 3c
       0.06112259 -0.01850272 -0.33460197 0.015972933
000150 a0 34 32 bf ce ab 56 be 54 9f 1f bf 3f c7 0c be
       -0.6961155 -0.20963976 -0.6235249 -0.13747881
000160 a3 ba 76 3e fe f3 2d bf 4d 4a ce 3d 8c a9 c8 bd
       0.24094634 -0.6795043 0.100727655 -0.097979635
000170 5f 13 3e 3e a5 7e 2a be 7d d9 0d bc a7 6e 49 bd
       0.18562077 -0.16649874 -0.00865781 -0.049177792
000180 58 74 38 bf 19 00 71 3d 74 68 4b 3e 27 64 24 3e
       -0.72052526 0.058837984 0.19864064 0.1605383
000190 2e c6 65 3e 5c 53 37 bf 5f 39 3f 3e 55 92 42 bf
       0.22438881 -0.7161157 0.18674229 -0.76004535
0001a0 a9 68 60 3e 6e e6 91 be 3a d6 35 bf 16 9b 6b be
       0.21914925 -0.28496116 -0.7103001 -0.2300838
0001b0 c4 39 d5 3d 0d 17 dc bd c9 ab 60 bf 87 9a c0 be
       0.104114085 -0.10746584 -0.87762123 -0.37617895
0001c0 f8 d4 23 3e 5e 00 70 3e f2 8e 2c bf 12 c2 e2 3c
       0.1599921 0.2343764 -0.6740562 0.02768043
0001d0 a8 cd 33 be 6b 78 bb be 87 da 0b bd b8 bf d3 be
       -0.1755892 -0.3661531 -0.03414395 -0.41357207
0001e0 27 60 2c bd 60 4e 93 3e d4 94 57 bf 59 66 ee be
       -0.042083886 0.28770733 -0.8421147 -0.4656246
0001f0 80 49 ca be 2f fc 7b 3e a3 8f 8d be 8c 57 e7 3c
       -0.395092 0.24607919 -0.2764865 0.028239988
000200 c6 21 c3 be 6e 3e 56 3e e7 8a 9e be 62 83 1f bf
       -0.38111705 0.20922253 -0.3096535 -0.6230985
000210 d7 78 16 3e e5 5b 46 bf 94 d2 c5 be 29 b7 95 3b
       0.14694534 -0.7748397 -0.3863722 0.0045689535
000220 13 29 8e 3c 51 3e 47 be ab a4 c6 be c6 4b e4 be
       0.01735357 -0.19457366 -0.38797507 -0.4458906
000230 11 09 22 bf 61 ef 60 bf cd 60 82 3c 27 4e 75 3d
       -0.63295084 -0.87865263 0.015915299 0.059888985
000240 a4 8e b9 3d 81 98 24 be 8b 8a 18 3d cc f7 6d 3e
       0.0906041 -0.160738 0.0372415 0.23239058
000250 d8 09 a5 be 88 35 e3 be 40 51 8c be 10 ba ca bb
       -0.32234073 -0.4437678 -0.2740574 -0.006186731
000260 17 11 8a 3d 86 e1 35 bf 41 b9 4b 3e 6f e1 0a bd
       0.06741541 -0.71047246 0.19894888 -0.033906396
000270 e5 b1 0f 3c 7b 4b d7 3c 64 fc 33 be 8b ca 7e bd
       0.008770441 0.02628111 -0.17576748 -0.06220488
000280 ad 4f 43 bf 5a a4 f0 3d 58 c7 1c 3e ca 76 41 3e
       -0.7629345 0.117500976 0.15310419 0.1889297
000290 56 fb 6a bd 10 35 36 bf f9 2d 4c 3e 45 e3 3d bf
       -0.0573686 -0.71174717 0.19939412 -0.7417491
0002a0 4e a0 76 3d 6d 72 22 bd 82 e2 15 be 70 bb 75 bf
       0.060211472 -0.039659906 -0.14637187 -0.9598913
0002b0 56 74 6f bc 7c 15 ff 3d ad cd 4d be cc 9e 6a bd
       -0.014615139 0.1245527 -0.2009799 -0.057280347
0002c0 e3 59 1b 3e b9 1e 2d 3e 75 76 f5 bd c4 f6 37 3e
       0.15171008 0.16906251 -0.119854845 0.17965227
0002d0 42 89 b4 3d 89 aa ca be e5 50 b3 be fa 06 4d bf
       0.08815242 -0.39583233 -0.35022655 -0.8008877
0002e0 1f 85 c3 3d d0 c7 4e 3e 8f aa 3c be 59 e2 ef be
       0.09546875 0.2019341 -0.18424438 -0.46852377
0002f0 f9 4a 07 bf f5 f5 ee 3d 62 9a 2c 3e dc b9 93 be
       -0.52848774 0.11668006 0.16855767 -0.28852737
000300 73 23 ca 3d 1d b3 b9 bd 35 76 9e 3d a6 4e 11 3e
       0.09870043 -0.09067366 0.0773739 0.14190158
000310 a2 6d 04 be 4a 70 15 3e 64 bd d2 be 66 82 e0 be
       -0.12932447 0.14593616 -0.4116012 -0.43849486
000320 c7 b9 b7 bd 01 10 ad be d2 d6 ff bd 01 b5 09 3e
       -0.08970981 -0.33801273 -0.124921456 0.13447954
000330 c1 eb a9 bd de 06 81 3d 0e ba 1b 3e 8d da 1d bf
       -0.082969196 0.06300138 0.15207693 -0.6166161
000340 4a 2a 86 3c 20 e4 ae bd a1 dd 36 be 08 40 09 3e
       0.016377587 -0.08539605 -0.17857982 0.13403332
000350 90 d8 03 be 2d 47 07 3c 4e f5 e1 bd c2 55 74 bc
       -0.12875581 0.008256716 -0.11033116 -0.014913024
000360 69 59 f5 3d 7c 41 8e 3d 3e 7a 5f 3d d8 5c 17 be
       0.11979944 0.06946084 0.05455994 -0.14781511
000370 bb 62 10 bf f3 18 97 3d 14 c1 16 bf 5e 56 be be
       -0.5640065 0.073778056 -0.58888364 -0.37175268
000380 bf 6b e9 3d 7e 38 80 be a1 5a 05 bf 67 34 ba 3d
       0.11397504 -0.250431 -0.52091414 0.09092026
000390 37 71 0c be 43 37 e3 3d 57 d5 a8 bd 2c c1 2b be
       -0.13715063 0.11094525 -0.08243816 -0.16772908
0003a0 72 2f 8b bd d8 6f 10 3e 12 68 61 be b3 07 87 bd
       -0.06796159 0.14105165 -0.22012356 -0.065932654
0003b0 f4 ff f9 3d f6 ab 99 3d 0d 13 9a 3c 34 60 db bd
       0.12207022 0.07503502 0.018807912 -0.10711709
0003c0 cf 05 ee be a7 9d 20 bf e9 93 fa 3d d4 f2 5a 3d
       -0.46488807 -0.6274056 0.12235243 0.053454235
0003d0 61 aa fb 3d c0 5e d8 be 49 f9 1b be 69 f1 df be
       0.122883566 -0.4225979 -0.15231813 -0.4373887
0003e0 7d be 64 3d be b6 62 bd d2 3b 92 3d 73 39 28 bf
       0.055845726 -0.055350058 0.07140316 -0.6571266
0003f0 af 01 bf bc 14 40 9f be fa 52 b5 bc e9 1a 8f be
       -0.023316232 -0.31103575 -0.022134293 -0.27950218

fc3.bias f4 [47]
000000 f0 a8 c1 3d af 5d 8c 3e dd 35 1f 3d c1 1a c7 3d
       0.094560504 0.27415225 0.038869727 0.097219
000010 72 32 4f bd a0 5f f6 bd e6 83 bd 3d 5f 3e 0a 3d
       -0.050585218 -0.12029958 0.09253673 0.033750888
000020 d0 39 02 be ea 7f dc 3c 2c fc ce bd 0d 47 18 3d
       -0.12717366 0.026916463 -0.10106692 0.037177134
000030 fc a0 fa bc 97 02 4f 3d 2b ca 31 bd 62 6a bc bd
       -0.030594341 0.05053958 -0.043405693 -0.091999784
000040 61 25 92 3d b5 b7 fa bd 1b 09 6b 3c 35 9e c6 bd
       0.07136036 -0.122420706 0.014345433 -0.09698144
000050 bf 32 c9 3d f4 28 c1 3d 83 51 24 bc 64 d0 cc bd
       0.09824132 0.09431639 -0.0100291995 -0.10000685
000060 ac d1 00 be ae d6 10 be 29 c7 41 be 24 75 c7 bd
       -0.12579983 -0.14144394 -0.1892363 -0.0973914
000070 1d a0 d0 bd 31 d2 31 be bf 37 49 bd f9 f5 32 3c
       -0.10186789 -0.17365338 -0.04912543 0.010922902
000080 93 36 a4 3d 1c 3a c1 bd 87 6e 6e bd b4 e7 96 3d
       0.08018222 -0.094349116 -0.058210876 0.073684126
000090 c7 db 6b be 1c 3a 8e bd 44 42 58 bd 61 71 0c be
       -0.23033057 -0.06944677 -0.05279757 -0.13715126
0000a0 64 b0 07 be 47 8f 2a bd c2 1b 35 bc f3 e5 13 3e
       -0.13250881 -0.041640546 -0.011053981 0.14443187
0000b0 23 76 2f 3c 87 4d b1 bd 4b a6 cd bd
       0.010709318 -0.08657365 -0.100414835
